chatBotApi/data.pth (torch, 5823 bytes, 6 tensors)

l1.weight f4 [8, 71]
0	0xbe8a9ce8	-0.27072835
1	0xbf299fd8	-0.6625953
2	0x3eefbfab	0.4682592
3	0xbe94eb82	-0.29085928
4	0x3c2341f4	0.009964455
5	0xbeb836c8	-0.35979295
6	0x3e921d4c	0.28537977
7	0x3f95b5d9	1.169612
8	0x3ef74b31	0.48299554
9	0x3f1f79e6	0.6229538
10	0x3f48f4fe	0.7849883
11	0x3f13b538	0.5769839
12	0xbde93a38	-0.113880575
13	0xbed5346e	-0.41641563
14	0xbeb5a5f3	-0.35478172
15	0x3ef00fcf	0.4688706
16	0xbe987f6c	-0.29784715
17	0xbe937a9c	-0.2880448
18	0xbe055635	-0.13021167
19	0xbec112d0	-0.37709665
20	0xbf2322c6	-0.63724935
21	0x3f7f464a	0.9971663
22	0x3eedf3db	0.4647511
23	0xbf0c9364	-0.549124
24	0xbdfba1c2	-0.12286712
25	0xbef210f6	-0.47278565
26	0xbed40381	-0.41408923
27	0xbefe8314	-0.4970938
28	0x3e87b04b	0.26501688
29	0xbe8d304b	-0.27575907
30	0xbcbe8b48	-0.023259774
31	0x3f50a25e	0.8149775
32	0xbf06d974	-0.5267556
33	0x3ede3e76	0.4340703
34	0xbf0ab76c	-0.5418613
35	0xbe808ca2	-0.25107294
36	0x3f26cb82	0.6515428
37	0xbe8ac23b	-0.2710131
38	0xbd6cf3b3	-0.057849597
39	0x3f20762d	0.6268032
40	0xbe5f50ba	-0.21808138
41	0xbe1b26db	-0.15151541
42	0xbeada791	-0.33916906
43	0xbece8483	-0.40335473
44	0x3efe535a	0.49672967
45	0x3f2ecae7	0.68278354
46	0x3eef9776	0.46795243
47	0x3eec9b5e	0.46212286
48	0xbec81d5f	-0.39084908
49	0xbeafa634	-0.3430649
50	0x3f308216	0.68948495
51	0x3f5f9ebf	0.873516
52	0xbe036548	-0.12831604
53	0xbe75e832	-0.24014357
54	0x3ed17f26	0.4091732
55	0xbe4957b6	-0.19662365
56	0xbea18845	-0.31549278
57	0xbe8a69b8	-0.27033782
58	0xbecb2eb4	-0.3968407
59	0x3ea4a715	0.32158723
60	0xbea97606	-0.33097857
61	0xbe91bfe4	-0.28466713
62	0x3f166096	0.5874113
63	0xbdd38264	-0.103276044
64	0xbe9c59b6	-0.30537194
65	0x3f59e949	0.8512159
66	0xbec5df07	-0.3864672
67	0x3f170775	0.58995754
68	0x3f1304e0	0.57429314
69	0x3f0b44f0	0.54402065
70	0x3d1e90ea	0.03871242
71	0x3ed9a72d	0.42510357
72	0x3c7c791a	0.015409732
73	0xbf03e9cb	-0.51528615
74	0xbef7a19d	-0.4836549
75	0x3f020b0f	0.50798124
76	0xbe07c9f1	-0.13260628
77	0x3d680dec	0.056653902
78	0xbf18befc	-0.5966642
79	0xbe55ccf1	-0.2087896
80	0xbecd3b66	-0.4008438
81	0xbf1a0fd3	-0.60180396
82	0xbecfc652	-0.40580994
83	0x3e9bea6d	0.3045229
84	0x3d2e0c65	0.04249229
85	0x3c97f785	0.018550644
86	0x3d1d041a	0.03833399
87	0xbd889b20	-0.06670213
88	0xbe7cf084	-0.24701124
89	0xbe328167	-0.17432176
90	0x3da515d6	0.080608055
91	0x3f31e09c	0.6948335
92	0xbeeefc74	-0.4667698
93	0x3e9fc1b5	0.31202474
94	0x3f266877	0.6500315
95	0x3e5bfcf9	0.2148322
96	0x3f0a2064	0.53955674
97	0x3f67ab50	0.9049578
98	0xbe24d2b3	-0.16096
99	0xbe2e6aaa	-0.17032877
100	0xbdf14ab5	-0.11781827
101	0x3ecc116e	0.39857048
102	0x3f0a3990	0.53994083
103	0xbf0c2c8f	-0.5475549
104	0x3e8ba2ad	0.2727255
105	0xbef5d833	-0.4801651
106	0xbe9bc547	-0.30423948
107	0xbe23707f	-0.15960883
108	0xbd444ce9	-0.04792491
109	0x3ee25b20	0.44210148
110	0xbefe65d9	-0.4968708
111	0xbe97e665	-0.29667965
112	0xbedcddc2	-0.43137938
113	0xbda4a0f8	-0.08038515
114	0xbcb9eb18	-0.02269511
115	0x3e02087a	0.12698546
116	0xbedb8558	-0.4287517
117	0xbe309215	-0.17243226
118	0xbe6e5b99	-0.23277129
119	0xbeab4c28	-0.3345654
120	0xbdf3377a	-0.11875816
121	0xbe91dfd1	-0.2849107
122	0x3f4bf7f0	0.796752
123	0x3c0b1b74	0.008490432
124	0xbe267c76	-0.16258416
125	0xbe529e62	-0.20568231
126	0xbe62c866	-0.22146758
127	0x3ef6e6e0	0.4822302
128	0x3e42f384	0.19038206
129	0xbe86b615	-0.26310793
130	0x3f1c71af	0.6111097
131	0x3cc389c4	0.023869403
132	0x3c824775	0.015903214
133	0xbec87345	-0.39150444
134	0xbeb767dd	-0.3582143
135	0xbe499ed7	-0.19689499
136	0x3f0954b6	0.53644884
137	0xbd4ce0b2	-0.050018974
138	0x3f216212	0.6304027
139	0xbd9224a3	-0.07135894
140	0x3df37186	0.11886887
141	0xbed01e13	-0.40647945
142	0x3dccded9	0.10003442
143	0x3f0e0bc4	0.554867
144	0x3f029e96	0.5102323
145	0x3f22ee0e	0.6364449
146	0xbe105027	-0.14093076
147	0x3eb0d0f6	0.34534425
148	0xbf198471	-0.59967715
149	0x3ea3458e	0.31889004
150	0x3d9c82d0	0.07642138
151	0x3f0dab4d	0.5533951
152	0x3f0345aa	0.51278174
153	0x3eddce38	0.43321395
154	0xbe3eeb69	-0.1864449
155	0x3e975997	0.2956054
156	0x3eb36597	0.35038444
157	0x3f02a5bc	0.5103414
158	0x3e90bf56	0.28270978
159	0x3bff5200	0.0077917576
160	0x3f29a058	0.6626029
161	0x3e3755b0	0.17903781
162	0xbed3dbd7	-0.41378662
163	0x3e8cbfcb	0.27490076
164	0xbe4f71fd	-0.20258327
165	0xbec1149d	-0.3771104
166	0x3e7e9bea	0.24864164
167	0xbec4b6d7	-0.38420746
168	0xbeb02e51	-0.34410337
169	0x3dba0380	0.09082699
170	0x3e8011ba	0.25013524
171	0x3e4f13e0	0.20222425
172	0xbc77d793	-0.0151270805
173	0xbf0e1057	-0.5549368
174	0x3f6b21be	0.9184836
175	0x3ce9964b	0.028514048
176	0x3f341450	0.70343494
177	0x3ef1f02b	0.47253546
178	0x3ee3eca3	0.44516477
179	0x3ea5d24d	0.3238701
180	0xbcc3a2e4	-0.023881383
181	0x3edaa171	0.42701295
182	0x3f514286	0.8174213
183	0x3f0a1c87	0.5394978
184	0x3e8f1dc1	0.27952388
185	0x3edc3ba1	0.43014243
186	0x3d84a1ef	0.06476199
187	0x3f29b308	0.66288805
188	0x3d276152	0.040864296
189	0x3e5b5bdf	0.21421765
190	0xbb96a640	-0.0045974553
191	0x3ed628d0	0.41828012
192	0x3ea9b59d	0.33146372
193	0xbf219343	-0.6311533
194	0x3e8cf413	0.27529964
195	0x3f3ad89f	0.7298679
196	0x3e8f0091	0.2793012
197	0x3f3f373f	0.74693674
198	0x3ea14a4e	0.31502002
199	0x3ec3a312	0.3821035
200	0xbdbd326a	-0.09238131
201	0xbdbc9e96	-0.09209935
202	0x3e94a089	0.2902873
203	0x3ea3e24d	0.3200859
204	0x3f0ebf7a	0.5576092
205	0x3ef22c08	0.47299218
206	0xbd3f2cec	-0.0466737
207	0xbf1316a7	-0.5745644
208	0x3e749293	0.23884039
209	0xbee5acf0	-0.44858503
210	0x3dafba5d	0.08580468
211	0x3d1a08fa	0.037606217
212	0x3f031ec1	0.512188
213	0x3f0eefa8	0.55834436
214	0xbda7a821	-0.08186365
215	0x3e64606b	0.22302406
216	0xbeccc908	-0.39997125
217	0xbdc4dc0b	-0.09612282
218	0xbe8d4930	-0.275949
219	0x3e4b281e	0.19839522
220	0x3f84755d	1.0348316
221	0x3a764833	0.0009394914
222	0x3e5896d5	0.21151288
223	0xbc862037	-0.016372783
224	0x3e847584	0.25870907
225	0x3e35ea0e	0.17765066
226	0xbe8ff923	-0.28119764
227	0xbece4f0f	-0.40294692
228	0x3e45f9ba	0.19333544
229	0xbe59c63f	-0.21267031
230	0xbe9d4cab	-0.30722556
231	0xbe204308	-0.1565057
232	0xbe8c6b21	-0.27425483
233	0x3e2b3ed0	0.1672318
234	0x3f7b6d57	0.98213714
235	0x3e236c21	0.15959217
236	0x3d291d80	0.0412879
237	0x3dcedf89	0.1010123
238	0x3d0b32bf	0.033983942
239	0xbe291150	-0.1651051
240	0xbe175e0c	-0.1478197
241	0xbe925a64	-0.28584588
242	0xbecef7e9	-0.40423515
243	0xbd9f3d77	-0.07775395
244	0x3f5e4ba6	0.8683418
245	0xbf2e2132	-0.680194
246	0x3f09bc48	0.5380292
247	0xbf26e175	-0.6518777
248	0xbe8978a7	-0.26849863
249	0x3f36908e	0.7131432
250	0xbecfe5de	-0.40605062
251	0x3f323c7a	0.6962353
252	0x3e8b2a98	0.27180934
253	0xbe8c4d78	-0.27402854
254	0xbe926631	-0.2859359
255	0xbe642423	-0.2227941

l1.bias f4 [8]
0	0x3f48f551	0.78499323
1	0x3f5ae80d	0.8551033
2	0x3f284f51	0.6574603
3	0x3f866130	1.0498409
4	0x3f474588	0.7784047
5	0x3f627faa	0.8847605
6	0x3f356eee	0.7087239
7	0x3f6c4016	0.9228529

l2.weight f4 [8, 8]
0	0x3f22a915	0.6353925
1	0xbf232e61	-0.63742644
2	0xbd61b565	-0.055104632
3	0xbeace73f	-0.33770177
4	0x3f89fdb9	1.0780555
5	0x3fabf147	1.3433007
6	0x3e63b8a4	0.22238404
7	0xbf9e903c	-1.2387767
8	0xbf369271	-0.713172
9	0xbf2f8865	-0.68567497
10	0x3fab12e4	1.336514
11	0xbf8e9196	-1.1138179
12	0x3f471a55	0.77774554
13	0x3f90bdfa	1.1307976
14	0x3fbad158	1.4595137
15	0x3f35e12e	0.7104672
16	0x3e6527a6	0.22378406
17	0xbeb32c8f	-0.34994933
18	0x3e0f4e82	0.13994792
19	0xbe431c66	-0.19053802
20	0xbe23a2e5	-0.15980108
21	0xbe424f95	-0.1897567
22	0xbe4f4d15	-0.20244248
23	0xbe4148de	-0.18875453
24	0x3d2cb6ab	0.042166393
25	0x3dcb5b38	0.09929508
26	0x3d967e6f	0.07348334
27	0xbe43b3c1	-0.1911154
28	0xbd4ad014	-0.049514845
29	0xbe873b74	-0.26412547
30	0xbe9fcb78	-0.31209922
31	0x3e90f4ca	0.2831176
32	0x3f9fe1ab	1.2490743
33	0xbf51287b	-0.81702393
34	0xbdc2ecee	-0.09517847
35	0x3f70a0f3	0.9399559
36	0x3f8cf003	1.1010746
37	0xbecb8824	-0.39752305
38	0xbf124b93	-0.5714657
39	0x3f8e5003	1.1118168
40	0xbd1ee360	-0.03879106
41	0x3f5de59f	0.866785
42	0xbf91eb00	-1.1399841
43	0xbd542eaa	-0.051802315
44	0xbe9b3aaa	-0.30318195
45	0x3f7efe00	0.99606323
46	0x3f6546d9	0.8956123
47	0x3fa816df	1.313198
48	0xbdcf48d2	-0.10121311
49	0x3e2a2e3f	0.16619204
50	0x3de885db	0.11353656
51	0xbdfa24f7	-0.12214082
52	0xbdb9dbe0	-0.09075141
53	0xbe8a6066	-0.2702667
54	0xbeb65c69	-0.35617378
55	0x3e9bc62d	0.30424634
56	0x3f60216f	0.87551016
57	0x3fb9fe26	1.4530685
58	0x3cf01896	0.029308598
59	0x3fdf9ceb	1.7469763
60	0x3f06b663	0.5262205
61	0x3fa1fb00	1.2654724
62	0xbea4754d	-0.32120743
63	0xbf165ba2	-0.5873357

l2.bias f4 [8]
0	0x3c24404e	0.010025097
1	0x3ed8e69a	0.42363435
2	0xbd6ea720	-0.05826485
3	0xbe41d8c1	-0.18930341
4	0xbf0e16f2	-0.5550376
5	0xbeccdeb8	-0.4001367
6	0xbe23a924	-0.15982491
7	0x3f86e8f9	1.0539848

l3.weight f4 [8, 8]
0	0x3f248034	0.6425812
1	0x3eacab8f	0.3372464
2	0xbe8be3a2	-0.27322108
3	0xbeac8344	-0.33693898
4	0xbf862f5b	-1.0483202
5	0xbf64d36f	-0.8938512
6	0xbec1420d	-0.37745705
7	0xbd78afac	-0.06071441
8	0xbf822fba	-1.0170815
9	0x3ea9524a	0.33070594
10	0x3d173860	0.036918998
11	0x3e834129	0.2563565
12	0xbfaa3151	-1.32963
13	0x3f4bff1f	0.7968616
14	0x3e6588d8	0.22415483
15	0xbfab1a37	-1.3367375
16	0xbf29cded	-0.6632984
17	0x3f676e72	0.904029
18	0x3c6b9c60	0.014380544
19	0x3deb7df6	0.114986345
20	0xbf3ba2d1	-0.73295313
21	0xbfb4805b	-1.4101671
22	0x3c16e738	0.0092104
23	0xbf6eda2e	-0.93301666
24	0xbfc5ca84	-1.5452428
25	0xbf549784	-0.83043694
26	0x3e458e0e	0.19292471
27	0xbe91b1c4	-0.28455937
28	0x3f7b6721	0.9820424
29	0xbfe7b5ba	-1.8102334
30	0xbe122e62	-0.14275506
31	0x3eadeefa	0.33971387
32	0xbf288090	-0.6582117
33	0xbe2891f0	-0.1646192
34	0xbe02fb78	-0.1279124
35	0xbe62b8b9	-0.22140779
36	0xbf6c178d	-0.92223436
37	0x3f2ad080	0.66724396
38	0xbe816391	-0.25271276
39	0x3e41f83a	0.18942347
40	0xbf8c38bb	-1.0954813
41	0xbfa0381e	-1.2517126
42	0x3e05d6ce	0.13070223
43	0xbd153908	-0.036431342
44	0x3ed4e46e	0.41580528
45	0x3ea30344	0.3183843
46	0xbe0795c3	-0.13240723
47	0x3d627a04	0.055292144
48	0x3f27e7cf	0.65588087
49	0xbe68a25b	-0.22718184
50	0x3daf0094	0.08545032
51	0xbd97e3f9	-0.07416529
52	0x3eb2f584	0.3495294
53	0xbfb1012e	-1.3828485
54	0x3e3ae715	0.18252213
55	0xbb9173d8	-0.0044388585
56	0xbe522f72	-0.20525911
57	0xbfa1524b	-1.2603239
58	0x3deb6860	0.11494517
59	0xbe205d4f	-0.15660594
60	0xbf8aadb9	-1.0834266
61	0xbfc11250	-1.5083714
62	0xbe30d535	-0.17268832
63	0x3f8f8f44	1.1215596

l3.bias f4 [8]
0	0xbf137c13	-0.576112
1	0xbd8c42dd	-0.06848691
2	0x3efbdba3	0.49191007
3	0x3dbd09f2	0.092304125
4	0x3dd9ece0	0.106408834
5	0xbf280769	-0.65636307
6	0xbf045125	-0.51686317
7	0x3f225406	0.6340946
