chatBotApi/data.pth (torch, 5823 bytes, 6 tensors)

l1.weight f4 [8, 71]
000000 58 2d 13 be 69 b7 b6 be 28 e1 0a 3f d1 3e 54 3e
       -0.14372766 -0.35686806 0.5424981 0.20727088
000010 10 44 92 be 45 3f d5 3d e3 01 5e 3d 5d 03 06 3f
       -0.28567553 0.10412458 0.054201018 0.5234888
000020 fe a9 0a 3f b9 14 02 3f 5f 23 31 3f ec 26 aa 3e
       0.5416564 0.5081287 0.69194597 0.3323282
000030 4c 93 b4 be bf 2b 16 3f 31 7d 5d 3d 0f 28 0e 3f
       -0.3526863 0.586605 0.05407447 0.55529875
000040 7e f2 45 3f b3 4e 2d bc 3e 63 69 3d 2b 6b e6 3e
       0.7732314 -0.010577845 0.05697941 0.45003638
000050 9d db 0e be 74 06 fc 3e 23 e3 97 3d 41 12 fc be
       -0.13950963 0.49223673 0.0741637 -0.49232677
000060 97 04 49 be ed 09 fc be 32 02 fc be ab 70 15 be
       -0.19630657 -0.49226323 -0.49220425 -0.1459376
000070 43 a1 0f 3f 76 13 6a 3b 8b 1b 47 be 0f 1f 95 3e
       0.5610544 0.0035717166 -0.194441 0.29125258
000080 66 fc b5 be a3 e8 a9 3e 88 d2 71 be 3a 3f 00 3e
       -0.35544127 0.331853 -0.23615468 0.12524119
000090 f2 43 a1 3e ce a7 3b 3f 30 4b d6 3c d6 86 02 3f
       0.3149715 0.73302925 0.0261589 0.50986993
0000a0 0a 58 a2 3d 1f 6f 38 3e a2 91 d4 3e e8 1c 3d be
       0.07926948 0.1801114 0.4151736 -0.18468058
0000b0 39 01 b0 3e 13 5b 3b 3f 63 24 06 3f 11 23 cb 3e
       0.34375933 0.73185843 0.5239927 0.3967519
0000c0 60 ad bb 3c 59 85 3d be 06 b7 90 3e 8d c8 02 bc
       0.02290982 -0.185079 0.28264636 -0.007982385
0000d0 37 66 f4 3e 5f 54 8a 3d 4f b8 2c 3f c1 97 89 3d
       0.47734234 0.06754374 0.6746873 0.06718398
0000e0 d8 24 0e bf 77 b6 1b be ca 78 40 3e d3 e8 99 3d
       -0.5552497 -0.15206324 0.18796077 0.07515111
0000f0 19 b4 d8 3d 56 63 f6 bd c0 e8 62 bd c4 70 8c 3e
       0.10581226 -0.120306656 -0.05539775 0.27429783
000100 ed 94 7c 3b a2 63 2d 3e f2 a0 d8 3e 18 a0 a7 3d
       0.0038540915 0.16932538 0.42310292 0.08184832
000110 26 89 0a 3f bb 6c 49 3e 82 16 74 3d a1 a9 2d 3f
       0.5411552 0.19670384 0.059591778 0.6783696
000120 35 71 33 be e8 00 85 be ce bc c9 be 9b bf 9f 3e
       -0.17523654 -0.25977254 -0.3940186 0.3120087
000130 52 5d 31 be a9 1b a7 3e fd 82 cd be 4e 9d 1c 3d
       -0.17320755 0.3263829 -0.40139 0.038235955
000140 ed 08 3d bd a7 a0 62 be d2 2c 78 be 43 0e 81 3d
       -0.04615109 -0.22131597 -0.24235848 0.06301548
000150 85 ef a6 3e ac 6a 6f be c7 0b ac 3e 8b 6c b1 3e
       0.32604614 -0.23380536 0.33602735 0.34653124
000160 33 1c 6b be 68 5b 2e be 1a 12 a5 3e a2 ee 05 3f
       -0.22959976 -0.17027056 0.32240373 0.5231725
000170 d4 60 a8 be 3c 67 9e 3e 88 0c 37 3f ff cb 1d 3f
       -0.32886374 0.30938137 0.71503496 0.616394
000180 51 d1 41 3f 2c 33 3b 3f 23 82 8e bd 8e d7 0b 3e
       0.75710016 0.7312496 -0.06958415 0.13656446
000190 67 45 61 be fb 13 91 3e bd 67 09 3f 98 e2 bb be
       -0.21999131 0.28335556 0.5367392 -0.36696315
0001a0 60 22 ca 3e af 15 0d bf 98 24 59 be a1 87 85 be
       0.3947935 -0.5511121 -0.21205366 -0.2608004
0001b0 99 be dd 3e 3a f0 23 3f 95 b9 df bd 0f df 22 be
       0.43309477 0.6403843 -0.10924069 -0.15905403
0001c0 35 03 c6 be 79 f3 bc 3e b4 a5 b7 be 59 8a d0 3e
       -0.38674322 0.36904505 -0.3586861 0.4073055
0001d0 30 59 45 be 5a e9 a0 bd 2d e5 1e be 9e 81 5d be
       -0.19272304 -0.07857008 -0.15517111 -0.21631476
0001e0 13 87 c8 be 43 9b 61 be 59 6e 25 3f e4 bf b7 3e
       -0.39165553 -0.22031884 0.646215 0.35888588
0001f0 5e 00 8d be 1a 1c 7c bd 2b 94 91 be 41 10 a6 3f
       -0.27539343 -0.061550237 -0.28433356 1.297371
000200 32 af 1f 3f e6 4d 9a be 73 05 0b 3f dd dc 89 be
       0.623767 -0.30137557 0.5430519 -0.26926318
000210 2a f9 b9 be 8b 08 b8 be 6e 51 5d be a0 83 91 be
       -0.3632291 -0.35944018 -0.21613094 -0.28420734
000220 85 47 20 3f fd bd bf 3e cb 10 2a 3f b6 82 34 3d
       0.6260913 0.37449637 0.66431874 0.04406997
000230 e8 b2 9d 3e 03 38 06 bf 5f 98 2a be cf b3 6b 3d
       0.30800557 -0.5242922 -0.16659687 0.057544526
000240 92 f1 31 3c 38 53 13 3f 53 c2 a6 3e 99 46 06 3f
       0.0108608175 0.57548857 0.32570133 0.52451473
000250 be 1b bf 3e 2f 72 89 be fb 2e 8f 3d db 86 71 3e
       0.37325853 -0.26844928 0.06991383 0.235866
000260 2a 7e ca 3b d7 ef 14 3e e1 a8 24 3f cc 70 b5 be
       0.0061795907 0.14544617 0.6432019 -0.3543762
000270 1b 3a 10 3f c1 7a 48 3a 9c 76 b1 be e4 0f e1 3e
       0.5633866 0.0007647686 -0.34660804 0.43957436
000280 a8 8c c3 bb 57 ba 43 be 5b d0 00 3f 5e c4 a8 be
       -0.0059676953 -0.19114052 0.50317925 -0.32962316
000290 e7 57 7d 3e e5 b1 d3 3e 98 87 95 be c0 0b eb 3e
       0.24740563 0.4134666 -0.29205012 0.45907402
0002a0 5e b4 d3 3e 3f 91 db 3e a0 50 04 3d 68 7a de 3e
       0.41348547 0.4288425 0.032303452 0.43452764
0002b0 60 ab c6 3e a4 c3 e1 be db 0b c3 bd 7a 76 63 be
       0.38802624 -0.44094574 -0.095237456 -0.22213164
0002c0 94 10 4c 3b 07 88 e9 3e 1d 4d a2 be 20 e4 92 be
       0.003113781 0.45611593 -0.31699458 -0.2868967
0002d0 09 53 e4 bd ac 6c d4 3d fc 64 10 3e 8a ee e8 3e
       -0.1114865 0.1037229 0.14101022 0.4549449
0002e0 8a 04 1a bd b7 3e c6 3e e3 3f ac be 24 04 c6 bc
       -0.037601985 0.38719723 -0.33642492 -0.024171896
0002f0 51 d9 5e 3e 36 c4 8f 3d cd e8 b9 3e 0e e7 b0 3e
       0.21762587 0.07019846 0.36310425 0.3455128
000300 82 f1 21 be 40 d0 d6 be 84 85 b0 be 53 4f c5 bc
       -0.15814784 -0.41955757 -0.34476864 -0.024085676
000310 80 e6 4a be 1f ce 3f 3e 40 3d 57 bf 48 43 9c be
       -0.19814491 0.18730973 -0.84077835 -0.30520082
000320 13 3b d9 3e a6 02 90 3e 78 f3 10 3f 9e 49 0a 3f
       0.42427883 0.2812702 0.56621504 0.5401858
000330 30 ec 26 3f 93 fe 97 3e 76 d2 f4 3e 9f 6b 32 bd
       0.65204144 0.29686412 0.4781682 -0.043559667
000340 6a 49 5b be 65 9e a1 be 85 95 6c 3d 91 a6 db 3d
       -0.21414724 -0.31566158 0.05775978 0.107251294
000350 34 05 33 3f 82 5f 01 3f 77 eb a0 3d 02 60 e4 bd
       0.69929814 0.5053636 0.07857411 -0.111511245
000360 7a bb d5 be 65 d7 82 3e a9 cc 6e be 74 b3 ec 3d
       -0.41744596 0.25554958 -0.23320259 0.115576655
000370 f4 8e 86 3f 51 61 06 be 3b 01 02 be a4 f8 f4 bd
       1.0512376 -0.13123061 -0.12695782 -0.11961487
000380 f5 05 90 be 68 9d f8 bd 72 7b 09 3f 65 83 82 be
       -0.28129545 -0.12139398 0.5370399 -0.2549087
000390 ab dc 02 bd 84 94 e4 3e 26 d4 40 bd 49 ec 70 bb
       -0.031948727 0.44644558 -0.04707732 -0.003676193
0003a0 b3 d0 f0 3e 78 89 f7 3e 63 93 76 3f af e7 89 be
       0.47034225 0.48347068 0.96318644 -0.26934573
0003b0 33 ff ef 3b 61 20 a4 3e 34 95 83 3d 52 fc 88 3c
       0.0073241233 0.32055953 0.064249426 0.016721878
0003c0 59 82 42 3e 6b c3 a0 3e 06 e8 2c be 1a dd a0 3e
       0.18995036 0.31399092 -0.16885385 0.31418687
0003d0 c5 78 05 be 70 0a c8 bd 06 e8 58 be a5 a1 39 be
       -0.13034351 -0.09767616 -0.2118226 -0.18128069
0003e0 95 eb 8f be 2c 33 25 3f b3 27 29 3f 45 32 f9 3e
       -0.28109422 0.6453121 0.660762 0.48671165
0003f0 92 4f 36 be d1 66 84 3c 0a 09 a0 be 20 36 da 3e
       -0.17803791 0.016162308 -0.31256896 0.4261942

l1.bias f4 [8]
000000 1c fc fb 3e 82 e8 63 3f d9 91 43 3f 1d 6a 57 3f
       0.49215782 0.89026654 0.7639442 0.8414629
000010 32 95 b6 3e 8b 68 11 3f ac 64 c6 3e 3d d6 82 3f
       0.35660702 0.56800145 0.38748682 1.022163

l2.weight f4 [8, 8]
000000 35 9f 9f 3f a8 fe ea 3e 3a ba 55 be ea 84 a4 be
       1.2470461 0.45897412 -0.20871821 -0.32132655
000010 97 62 31 3f 7e 19 11 bf e9 55 05 bf 08 ce 29 3e
       0.6929106 -0.56679523 -0.52084213 0.16582501
000020 30 06 16 bf dd 75 d0 3f 6a 23 23 bf 46 03 af 3f
       -0.5860319 1.6285969 -0.6372591 1.3672874
000030 29 70 b4 be b7 3f 41 bf 14 15 0d bd 4b a3 96 3f
       -0.3524182 -0.75487846 -0.03444393 1.1768583
000040 25 1a 8a 3f 2b 45 01 3e a4 9a 13 bf fa 6d 85 3f
       1.0789229 0.12624042 -0.5765784 1.0424187
000050 b1 26 86 3f 60 78 09 3f 1b f6 63 3f cc 39 16 bf
       1.0480558 0.536993 0.890474 -0.5868194
000060 66 6e 62 be 12 d9 b2 3c 85 58 a6 3f bc c2 aa 3d
       -0.22112426 0.021832023 1.2995764 0.08337924
000070 35 48 2a bf 56 a9 54 3f a6 2b f2 be 69 ca 47 3f
       -0.6651643 0.83070886 -0.47298926 0.7804323
000080 ef e8 87 3f d4 d9 12 be 0b 3e df be d2 f3 7c 3f
       1.0617961 -0.14340907 -0.43602023 0.9880954
000090 82 fe 0c 3d ac e6 84 3f 81 4a 6d bf 13 43 4a be
       0.034422405 1.0382895 -0.9269181 -0.1975215
0000a0 69 08 19 3f c2 dd 34 bf 91 a5 78 3f 88 35 15 bf
       0.5977846 -0.70650876 0.97127634 -0.5828481
0000b0 c2 23 81 3f 4b f9 6f 3f 2c 4a 15 3f ed 23 73 3f
       1.0089037 0.93739766 0.583163 0.94976693
0000c0 1c 6d ca 3e 45 30 77 3f 3f 47 3f 3f 07 b6 c5 be
       0.3953637 0.9655803 0.7471809 -0.38615438
0000d0 18 9e 09 3f c3 df 2b bf 46 12 34 bf b2 f0 b5 3e
       0.53756857 -0.6713831 -0.70340383 0.35535198
0000e0 19 39 2b 3e a5 40 06 be 16 04 c9 3c ce e8 1f be
       0.16721 -0.13110597 0.024538081 -0.15616152
0000f0 f4 3e 15 be 9f c7 ba 3c 68 06 5f 3d 7a 41 5b 3d
       -0.14574796 0.022800265 0.05444947 0.05352924

l2.bias f4 [8]
000000 15 be 91 be 9d 39 59 3f 8c 4b ba 3e 98 9c 53 3e
       -0.28465334 0.84853536 0.36385763 0.20665205
000010 49 46 41 3e 3f c6 20 3f f3 11 84 bd 12 62 a6 be
       0.18874468 0.628025 -0.06448736 -0.32496697

l3.weight f4 [8, 8]
000000 2b 01 81 be 18 c8 95 bf 70 df 50 bf 3c 23 6d 3f
       -0.25196204 -1.1701689 -0.8159094 0.9263189
000010 48 2a a6 bf 8c 2d 18 3f 32 9b 07 3d f4 3c 88 bd
       -1.2981653 0.594445 0.03310699 -0.06652251
000020 db 98 7c 3e 00 ab 8c 3c b4 3c 27 3e 9b 23 d7 bf
       0.24667685 0.017171383 0.1633175 -1.6807741
000030 a0 3b 42 3f 8f 5f 87 bf 81 d2 4b bf d9 59 57 be
       0.7587223 -1.0576037 -0.7961808 -0.21030368
000040 51 fb 4f bf ed 86 6c bf 9c 03 0b 3f 61 70 35 bf
       -0.81242853 -0.9239338 0.5430238 -0.708746
000050 bc da e5 bf 68 0e 32 3f 39 5a 5c bf 5a c1 29 3e
       -1.7957377 0.6955323 -0.8607517 0.16577664
000060 c2 e3 8f bf 3d fe b1 3e fa a4 6a bd f6 62 d6 3d
       -1.1241381 0.3476428 -0.05728624 0.10468094
000070 f9 c9 c6 3e fa 21 9e 3d 3f 30 dd bf 1d 3f e8 bd
       0.38825968 0.07721324 -1.7280349 -0.11340163
000080 d8 cc 68 bf 33 ab f5 3e a0 52 ca bf b4 de 54 3f
       -0.90937567 0.47982177 -1.5806465 0.8315232
000090 b6 a1 15 bf 42 f7 d4 be 44 c7 32 3f c0 79 44 be
       -0.58449876 -0.41594893 0.69835305 -0.19187069
0000a0 67 3a 63 3f 9a 1a 96 3e 07 20 46 bf 99 b7 a7 bf
       0.8876099 0.2931717 -0.7739262 -1.3102905
0000b0 c8 8a ad bf 05 47 79 3c 37 a9 49 3f 85 0e 9b be
       -1.3557978 0.015214686 0.78773826 -0.30284515
0000c0 13 20 05 3f fb d8 85 bf d8 a1 db bd f8 04 4b bf
       0.52002066 -1.0456842 -0.107242286 -0.79304457
0000d0 fc eb 00 bd dd 82 8e 3e d1 d4 ea 3e 1c 79 5f 3e
       -0.031475052 0.27834216 0.4586549 0.21823543
0000e0 0d 0d 7d bf 95 29 69 3f 59 03 f7 3e 05 f6 ca bf
       -0.9884804 0.91079074 0.48244742 -1.5856329
0000f0 bb d3 be bf 0d ed 42 bf 3d 92 94 be 95 bf 22 be
       -1.4908365 -0.7614296 -0.2901782 -0.15893395

l3.bias f4 [8]
000000 c3 e6 c1 3c c3 7a c6 3b 5e 0a d1 3e 11 1b 92 be
       0.023669606 0.006057115 0.40828222 -0.28536275
000010 3e b4 56 3e bc 1b 3f be 3f 6a ca 3e f9 d9 26 3f
       0.20967194 -0.18662924 0.39534184 0.6517635
